#08 - StereoVision/stereoParams.npz (npz, 2438 bytes, 8 tensors)

intrinsics1 f8 [3, 3]
531.4993135989246 0.0 335.2986186846937 0.0 531.329257838927 241.94671192430135 0.0 0.0
1.0
00000000: a2ce 2098 fe9b 8040 0000 0000 0000 0000
00000010: becb 6224 c7f4 7440 0000 0000 0000 0000
00000020: 2511 ef51 a29a 8040 7133 ce76 4b3e 6e40
00000030: 0000 0000 0000 0000 0000 0000 0000 0000
00000040: 0000 0000 0000 f03f

distortion1 f8 [1, 5]
-0.2753788921886638 -0.020228705240126963 0.0016359958873547068 -0.0009183512946279176 0.24284546047594052
00000000: 9960 fdc9 ce9f d1bf d97d c96d d5b6 94bf
00000010: 49f9 4835 ddcd 5a3f 05cc 6963 b017 4ebf
00000020: f2f4 5c5f 8f15 cf3f

intrinsics2 f8 [3, 3]
531.4993135989246 0.0 334.49172287802526 0.0 531.329257838927 243.1799191641577 0.0 0.0
1.0
00000000: a2ce 2098 fe9b 8040 0000 0000 0000 0000
00000010: 04fd ce18 dee7 7440 0000 0000 0000 0000
00000020: 2511 ef51 a29a 8040 64bf d5e5 c165 6e40
00000030: 0000 0000 0000 0000 0000 0000 0000 0000
00000040: 0000 0000 0000 f03f

distortion2 f8 [1, 5]
-0.29267392927225305 0.104369466486532 -0.0007137937909295525 -0.0011488325943528343 -0.001708469395834051
00000000: e76e a76e 2bbb d2bf 30b8 4215 f5b7 ba3f
00000010: a70d 7b7e bc63 47bf 05fa f69a 8dd2 52bf
00000020: 84d0 9a0b d7fd 5bbf

R f8 [3, 3]
0.9997362788469504 0.00486121998747905 -0.02244418181814418 -0.004445895924511797 0.9998186476891971 0.01851771428588083 0.02253013019671633 -0.018413046276443225
0.9995765868407186
00000000: 68b7 c8ef d6fd ef3f a890 d6cd 5be9 733f
00000010: 73df 938b 9bfb 96bf 561f 8e19 dc35 72bf
00000020: 8b31 38ad 83fe ef3f 8ea3 04c5 4ef6 923f
00000030: 1b63 7a71 2312 973f 5ae8 4e9e deda 92bf
00000040: 8980 ca09 88fc ef3f

T f8 [3, 1]
-3.3322447155237938 0.04948670889312798 -0.10872837145842851
00000000: 538c dbea 6fa8 0ac0 6cb8 9068 5256 a93f
00000010: b8b0 8f5f 9fd5 bbbf

E f8 [3, 3]
0.0006315469708233412 0.10779745225609666 0.051479156486809396 -0.03362379019886724 -0.06188532868391276 3.333274118599099 -0.034658845000974846 -3.3318809710228585
-0.06059486688072692
00000000: b817 f4ca ccb1 443f dc34 0824 9d98 bb3f
00000010: c8b1 12db 795b aa3f 481c 8b2e 2337 a1bf
00000020: 4667 990d 6faf afbf 0ee4 ff9e 8baa 0a40
00000030: 43b7 97db cdbe a1bf c8a9 e535 b1a7 0ac0
00000040: d2cb 1d57 4a06 afbf

F f8 [3, 3]
-3.150475831307405e-08 -5.37920343821115e-06 -5.286783176796411e-05 1.6778616197138157e-06 3.089129760622382e-06 -0.0897162886943862 0.0005214561105995989 0.08941743436011142
0.9999999999999999
00000000: 372b 9923 fbe9 60be e582 9f2e e08f d6be
00000010: 6c0b 1dde ccb7 0bbf 8a28 555c 5c26 bc3e
00000020: 5eb4 b60b dbe9 c93e d962 dc8d a5f7 b6bf
00000030: 6053 7d78 4a16 413f f9d6 449c 0fe4 b63f
00000040: ffff ffff ffff ef3f
